…
   "source": [
    "from importlib.metadata import version\n",
    "\n",
    "import torch\n",
    "print(\"torch version:\", version(\"torch\"))"
   ]
  },
  {
   "cell_type": "markdown",
   "id": "5fea8be3-30a1-4623-a6d7-b095c6c1092e",
   "metadata": {},
   "source": [
    "# 练习 4.1：前馈模块与注意力模块中的参数"
   ]
  },
  {
   "cell_type": "code",
   "execution_count": 2,
   "id": "2751b0e5-ffd3-4be2-8db3-e20dd4d61d69",
   "metadata": {},
   "outputs": [
    {
     "name": "stdout",
     "output_type": "stream",
     "text": [
      "TransformerBlock(\n",
      "  (att): MultiHeadAttention(\n",
      "    (W_query): Linear(in_features=768, out_features=768, bias=False)\n",
      "    (W_key): Linear(in_features=768, out_features=768, bias=False)\n",
      "    (W_value): Linear(in_features=768, out_features=768, bias=False)\n",
      "    (out_proj): Linear(in_features=768, out_features=768, bias=True)\n",
      "    (dropout): Dropout(p=0.1, inplace=False)\n",
      "  )\n",
      "  (ff): FeedForward(\n",
      "    (layers): Sequential(\n",
      "      (0): Linear(in_features=768, out_features=3072, bias=True)\n",
      "      (1): GELU()\n",
      "      (2): Linear(in_features=3072, out_features=768, bias=True)\n",
      "    )\n",
      "  )\n",
      "  (norm1): LayerNorm()\n",
      "  (norm2): LayerNorm()\n",
      "  (drop_shortcut): Dropout(p=0.1, inplace=False)\n",
      ")\n"
     ]
    }
   ],
   "source": [
    "from gpt import TransformerBlock\n",
    "\n",
    "GPT_CONFIG_124M = {\n",
    "    \"vocab_size\": 50257,\n",
    "    \"context_length\": 1024,\n",
    "    \"emb_dim\": 768,\n",
    "    \"n_heads\": 12,\n",
    "    \"n_layers\": 12,\n",
    "    \"drop_rate\": 0.1,\n",
    "    \"qkv_bias\": False\n",
…
     "name": "stdout",
     "output_type": "stream",
     "text": [
      "numpy version: 1.24.3\n",
      "torch version: 2.3.0\n",
      "transformers version: 4.41.2\n"
     ]
    }
   ],
   "source": [
    "from importlib.metadata import version\n",
    "\n",
    "pkgs = [\"numpy\", \"torch\", \"transformers\"]\n",
    "for p in pkgs:\n",
    "    print(f\"{p} version: {version(p)}\")"
   ]
  },
  {
   "cell_type": "code",
   "execution_count": 3,
   "id": "ffc17d7d-bcd8-42ee-82a9-04fd55acf15d",
   "metadata": {},
   "outputs": [
    {
     "data": {
      "text/plain": [
       "GPT2Model(\n",
       "  (wte): Embedding(50257, 768)\n",
       "  (wpe): Embedding(1024, 768)\n",
       "  (drop): Dropout(p=0.1, inplace=False)\n",
       "  (h): ModuleList(\n",
       "    (0-11): 12 x GPT2Block(\n",
       "      (ln_1): LayerNorm((768,), eps=1e-05, elementwise_affine=True)\n",
       "      (attn): GPT2Attention(\n",
       "        (c_attn): Conv1D()\n",
       "        (c_proj): Conv1D()\n",
       "        (attn_dropout): Dropout(p=0.1, inplace=False)\n",
       "        (resid_dropout): Dropout(p=0.1, inplace=False)\n",
       "      )\n",
       "      (ln_2): LayerNorm((768,), eps=1e-05, elementwise_affine=True)\n",
       "      (mlp): GPT2MLP(\n",
       "        (c_fc): Conv1D()\n",
       "        (c_proj): Conv1D()\n",
       "        (act): NewGELUActivation()\n",
       "        (dropout): Dropout(p=0.1, inplace=False)\n",
       "      )\n",
       "    )\n",
       "  )\n",
       "  (ln_f): LayerNorm((768,), eps=1e-05, elementwise_affine=True)\n",
       ")"
      ]
     },
     "execution_count": 3,
     "metadata": {},
     "output_type": "execute_result"
    }
   ],
   "source": [
    "from transformers import GPT2Model\n",
    "\n",
    "\n",
    "# allowed model names\n",
    "model_names = {\n",
    "    \"gpt2-small (124M)\": \"openai-community/gpt2\",\n",
    "    \"gpt2-medium (355M)\": \"openai-community/gpt2-medium\",\n",
…
   "id": "b8b6819e-ef7a-4f0d-841a-1b467496bef9",
   "metadata": {
    "id": "b8b6819e-ef7a-4f0d-841a-1b467496bef9"
   },
   "source": [
    "- 使用 LoRA 时，可训练参数的数量减少了近 50 倍。\n",
    "- 现在通过输出模型架构来再次确认各层是否已按预期修改。"
   ]
  },
  {
   "cell_type": "code",
   "execution_count": 17,
   "id": "1711be61-bb2c-466f-9b5b-24f4aa5ccd9c",
   "metadata": {
    "colab": {
     "base_uri": "https://localhost:8080/"
    },
    "id": "1711be61-bb2c-466f-9b5b-24f4aa5ccd9c",
    "outputId": "acff8eca-3775-45a2-b62d-032a986ef037"
   },
   "outputs": [
    {
     "name": "stdout",
     "output_type": "stream",
     "text": [
      "GPTModel(\n",
      "  (tok_emb): Embedding(50257, 768)\n",
      "  (pos_emb): Embedding(1024, 768)\n",
      "  (drop_emb): Dropout(p=0.0, inplace=False)\n",
      "  (trf_blocks): Sequential(\n",
      "    (0): TransformerBlock(\n",
      "      (att): MultiHeadAttention(\n",
      "        (W_query): LinearWithLoRA(\n",
      "          (linear): Linear(in_features=768, out_features=768, bias=True)\n",
      "          (lora): LoRALayer()\n",
      "        )\n",
      "        (W_key): LinearWithLoRA(\n",
      "          (linear): Linear(in_features=768, out_features=768, bias=True)\n",
      "          (lora): LoRALayer()\n",
      "        )\n",
      "        (W_value): LinearWithLoRA(\n",
      "          (linear): Linear(in_features=768, out_features=768, bias=True)\n",
      "          (lora): LoRALayer()\n",
      "        )\n",
      "        (out_proj): LinearWithLoRA(\n",
      "          (linear): Linear(in_features=768, out_features=768, bias=True)\n",
      "          (lora): LoRALayer()\n",
      "        )\n",
      "        (dropout): Dropout(p=0.0, inplace=False)\n",
      "      )\n",
      "      (ff): FeedForward(\n",
      "        (layers): Sequential(\n",
      "          (0): LinearWithLoRA(\n",
      "            (linear): Linear(in_features=768, out_features=3072, bias=True)\n",
      "            (lora): LoRALayer()\n",
      "          )\n",
      "          (1): GELU()\n",
      "          (2): LinearWithLoRA(\n",
      "            (linear): Linear(in_features=3072, out_features=768, bias=True)\n",
      "            (lora): LoRALayer()\n",
      "          )\n",
      "        )\n",
      "      )\n",
      "      (norm1): LayerNorm()\n",
      "      (norm2): LayerNorm()\n",
      "      (drop_resid): Dropout(p=0.0, inplace=False)\n",
      "    )\n",
      "    (1): TransformerBlock(\n",
      "      (att): MultiHeadAttention(\n",
      "        (W_query): LinearWithLoRA(\n",
      "          (linear): Linear(in_features=768, out_features=768, bias=True)\n",
      "          (lora): LoRALayer()\n",
      "        )\n",
      "        (W_key): LinearWithLoRA(\n",
      "          (linear): Linear(in_features=768, out_features=768, bias=True)\n",
      "          (lora): LoRALayer()\n",
      "        )\n",
      "        (W_value): LinearWithLoRA(\n",
      "          (linear): Linear(in_features=768, out_features=768, bias=True)\n",
      "          (lora): LoRALayer()\n",
      "        )\n",
      "        (out_proj): LinearWithLoRA(\n",
      "          (linear): Linear(in_features=768, out_features=768, bias=True)\n",
      "          (lora): LoRALayer()\n",
      "        )\n",
      "        (dropout): Dropout(p=0.0, inplace=False)\n",
      "      )\n",
      "      (ff): FeedForward(\n",
      "        (layers): Sequential(\n",
      "          (0): LinearWithLoRA(\n",
      "            (linear): Linear(in_features=768, out_features=3072, bias=True)\n",
      "            (lora): LoRALayer()\n",
      "          )\n",
      "          (1): GELU()\n",
      "          (2): LinearWithLoRA(\n",
      "            (linear): Linear(in_features=3072, out_features=768, bias=True)\n",
      "            (lora): LoRALayer()\n",
      "          )\n",
      "        )\n",
      "      )\n",
      "      (norm1): LayerNorm()\n",
      "      (norm2): LayerNorm()\n",
      "      (drop_resid): Dropout(p=0.0, inplace=False)\n",
      "    )\n",
      "    (2): TransformerBlock(\n",
      "      (att): MultiHeadAttention(\n",
      "        (W_query): LinearWithLoRA(\n",
      "          (linear): Linear(in_features=768, out_features=768, bias=True)\n",
      "          (lora): LoRALayer()\n",
      "        )\n",
      "        (W_key): LinearWithLoRA(\n",
      "          (linear): Linear(in_features=768, out_features=768, bias=True)\n",
      "          (lora): LoRALayer()\n",
      "        )\n",
      "        (W_value): LinearWithLoRA(\n",
      "          (linear): Linear(in_features=768, out_features=768, bias=True)\n",
      "          (lora): LoRALayer()\n",
      "        )\n",
      "        (out_proj): LinearWithLoRA(\n",
      "          (linear): Linear(in_features=768, out_features=768, bias=True)\n",
      "          (lora): LoRALayer()\n",
      "        )\n",
      "        (dropout): Dropout(p=0.0, inplace=False)\n",
      "      )\n",
      "      (ff): FeedForward(\n",
      "        (layers): Sequential(\n",
      "          (0): LinearWithLoRA(\n",
      "            (linear): Linear(in_features=768, out_features=3072, bias=True)\n",
      "            (lora): LoRALayer()\n",
      "          )\n",
      "          (1): GELU()\n",
      "          (2): LinearWithLoRA(\n",
      "            (linear): Linear(in_features=3072, out_features=768, bias=True)\n",
      "            (lora): LoRALayer()\n",
      "          )\n",
      "        )\n",
      "      )\n",
      "      (norm1): LayerNorm()\n",
      "      (norm2): LayerNorm()\n",
      "      (drop_resid): Dropout(p=0.0, inplace=False)\n",
      "    )\n",
      "    (3): TransformerBlock(\n",
      "      (att): MultiHeadAttention(\n",
      "        (W_query): LinearWithLoRA(\n",
      "          (linear): Linear(in_features=768, out_features=768, bias=True)\n",
      "          (lora): LoRALayer()\n",
      "        )\n",
      "        (W_key): LinearWithLoRA(\n",
      "          (linear): Linear(in_features=768, out_features=768, bias=True)\n",
      "          (lora): LoRALayer()\n",
      "        )\n",
      "        (W_value): LinearWithLoRA(\n",
      "          (linear): Linear(in_features=768, out_features=768, bias=True)\n",
      "          (lora): LoRALayer()\n",
      "        )\n",
      "        (out_proj): LinearWithLoRA(\n",
      "          (linear): Linear(in_features=768, out_features=768, bias=True)\n",
      "          (lora): LoRALayer()\n",
      "        )\n",
      "        (dropout): Dropout(p=0.0, inplace=False)\n",
      "      )\n",
      "      (ff): FeedForward(\n",
      "        (layers): Sequential(\n",
      "          (0): LinearWithLoRA(\n",
      "            (linear): Linear(in_features=768, out_features=3072, bias=True)\n",
      "            (lora): LoRALayer()\n",
      "          )\n",
      "          (1): GELU()\n",
      "          (2): LinearWithLoRA(\n",
      "            (linear): Linear(in_features=3072, out_features=768, bias=True)\n",
      "            (lora): LoRALayer()\n",
      "          )\n",
      "        )\n",
      "      )\n",
      "      (norm1): LayerNorm()\n",
      "      (norm2): LayerNorm()\n",
      "      (drop_resid): Dropout(p=0.0, inplace=False)\n",
      "    )\n",
      "    (4): TransformerBlock(\n",
      "      (att): MultiHeadAttention(\n",
      "        (W_query): LinearWithLoRA(\n",
      "          (linear): Linear(in_features=768, out_features=768, bias=True)\n",
      "          (lora): LoRALayer()\n",
      "        )\n",
      "        (W_key): LinearWithLoRA(\n",
      "          (linear): Linear(in_features=768, out_features=768, bias=True)\n",
      "          (lora): LoRALayer()\n",
      "        )\n",
      "        (W_value): LinearWithLoRA(\n",
      "          (linear): Linear(in_features=768, out_features=768, bias=True)\n",
      "          (lora): LoRALayer()\n",
      "        )\n",
      "        (out_proj): LinearWithLoRA(\n",
      "          (linear): Linear(in_features=768, out_features=768, bias=True)\n",
      "          (lora): LoRALayer()\n",
      "        )\n",
      "        (dropout): Dropout(p=0.0, inplace=False)\n",
      "      )\n",
      "      (ff): FeedForward(\n",
      "        (layers): Sequential(\n",
      "          (0): LinearWithLoRA(\n",
      "            (linear): Linear(in_features=768, out_features=3072, bias=True)\n",
      "            (lora): LoRALayer()\n",
      "          )\n",
      "          (1): GELU()\n",
      "          (2): LinearWithLoRA(\n",
      "            (linear): Linear(in_features=3072, out_features=768, bias=True)\n",
      "            (lora): LoRALayer()\n",
      "          )\n",
      "        )\n",
      "      )\n",
      "      (norm1): LayerNorm()\n",
      "      (norm2): LayerNorm()\n",
      "      (drop_resid): Dropout(p=0.0, inplace=False)\n",
      "    )\n",
      "    (5): TransformerBlock(\n",
      "      (att): MultiHeadAttention(\n",
      "        (W_query): LinearWithLoRA(\n",
      "          (linear): Linear(in_features=768, out_features=768, bias=True)\n",
      "          (lora): LoRALayer()\n",
      "        )\n",
      "        (W_key): LinearWithLoRA(\n",
      "          (linear): Linear(in_features=768, out_features=768, bias=True)\n",
      "          (lora): LoRALayer()\n",
      "        )\n",
      "        (W_value): LinearWithLoRA(\n",
      "          (linear): Linear(in_features=768, out_features=768, bias=True)\n",
      "          (lora): LoRALayer()\n",
      "        )\n",
      "        (out_proj): LinearWithLoRA(\n",
      "          (linear): Linear(in_features=768, out_features=768, bias=True)\n",
      "          (lora): LoRALayer()\n",
      "        )\n",
      "        (dropout): Dropout(p=0.0, inplace=False)\n",
      "      )\n",
      "      (ff): FeedForward(\n",
      "        (layers): Sequential(\n",
      "          (0): LinearWithLoRA(\n",
      "            (linear): Linear(in_features=768, out_features=3072, bias=True)\n",
      "            (lora): LoRALayer()\n",
      "          )\n",
      "          (1): GELU()\n",
      "          (2): LinearWithLoRA(\n",
      "            (linear): Linear(in_features=3072, out_features=768, bias=True)\n",
      "            (lora): LoRALayer()\n",
      "          )\n",
      "        )\n",
      "      )\n",
      "      (norm1): LayerNorm()\n",
      "      (norm2): LayerNorm()\n",
      "      (drop_resid): Dropout(p=0.0, inplace=False)\n",
      "    )\n",
      "    (6): TransformerBlock(\n",
      "      (att): MultiHeadAttention(\n",
      "        (W_query): LinearWithLoRA(\n",
      "          (linear): Linear(in_features=768, out_features=768, bias=True)\n",
      "          (lora): LoRALayer()\n",
      "        )\n",
      "        (W_key): LinearWithLoRA(\n",
      "          (linear): Linear(in_features=768, out_features=768, bias=True)\n",
      "          (lora): LoRALayer()\n",
      "        )\n",
      "        (W_value): LinearWithLoRA(\n",
      "          (linear): Linear(in_features=768, out_features=768, bias=True)\n",
      "          (lora): LoRALayer()\n",
      "        )\n",
      "        (out_proj): LinearWithLoRA(\n",
      "          (linear): Linear(in_features=768, out_features=768, bias=True)\n",
      "          (lora): LoRALayer()\n",
      "        )\n",
      "        (dropout): Dropout(p=0.0, inplace=False)\n",
      "      )\n",
      "      (ff): FeedForward(\n",
      "        (layers): Sequential(\n",
      "          (0): LinearWithLoRA(\n",
      "            (linear): Linear(in_features=768, out_features=3072, bias=True)\n",
      "            (lora): LoRALayer()\n",
      "          )\n",
      "          (1): GELU()\n",
      "          (2): LinearWithLoRA(\n",
      "            (linear): Linear(in_features=3072, out_features=768, bias=True)\n",
      "            (lora): LoRALayer()\n",
      "          )\n",
      "        )\n",
      "      )\n",
      "      (norm1): LayerNorm()\n",
      "      (norm2): LayerNorm()\n",
      "      (drop_resid): Dropout(p=0.0, inplace=False)\n",
      "    )\n",
      "    (7): TransformerBlock(\n",
      "      (att): MultiHeadAttention(\n",
      "        (W_query): LinearWithLoRA(\n",
      "          (linear): Linear(in_features=768, out_features=768, bias=True)\n",
      "          (lora): LoRALayer()\n",
      "        )\n",
      "        (W_key): LinearWithLoRA(\n",
      "          (linear): Linear(in_features=768, out_features=768, bias=True)\n",
      "          (lora): LoRALayer()\n",
      "        )\n",
      "        (W_value): LinearWithLoRA(\n",
      "          (linear): Linear(in_features=768, out_features=768, bias=True)\n",
      "          (lora): LoRALayer()\n",
      "        )\n",
      "        (out_proj): LinearWithLoRA(\n",
      "          (linear): Linear(in_features=768, out_features=768, bias=True)\n",
      "          (lora): LoRALayer()\n",
      "        )\n",
      "        (dropout): Dropout(p=0.0, inplace=False)\n",
      "      )\n",
      "      (ff): FeedForward(\n",
      "        (layers): Sequential(\n",
      "          (0): LinearWithLoRA(\n",
      "            (linear): Linear(in_features=768, out_features=3072, bias=True)\n",
      "            (lora): LoRALayer()\n",
      "          )\n",
      "          (1): GELU()\n",
      "          (2): LinearWithLoRA(\n",
      "            (linear): Linear(in_features=3072, out_features=768, bias=True)\n",
      "            (lora): LoRALayer()\n",
      "          )\n",
      "        )\n",
      "      )\n",
      "      (norm1): LayerNorm()\n",
      "      (norm2): LayerNorm()\n",
      "      (drop_resid): Dropout(p=0.0, inplace=False)\n",
      "    )\n",
      "    (8): TransformerBlock(\n",
      "      (att): MultiHeadAttention(\n",
      "        (W_query): LinearWithLoRA(\n",
      "          (linear): Linear(in_features=768, out_features=768, bias=True)\n",
      "          (lora): LoRALayer()\n",
      "        )\n",
      "        (W_key): LinearWithLoRA(\n",
      "          (linear): Linear(in_features=768, out_features=768, bias=True)\n",
      "          (lora): LoRALayer()\n",
      "        )\n",
      "        (W_value): LinearWithLoRA(\n",
      "          (linear): Linear(in_features=768, out_features=768, bias=True)\n",
      "          (lora): LoRALayer()\n",
      "        )\n",
      "        (out_proj): LinearWithLoRA(\n",
      "          (linear): Linear(in_features=768, out_features=768, bias=True)\n",
      "          (lora): LoRALayer()\n",
      "        )\n",
      "        (dropout): Dropout(p=0.0, inplace=False)\n",
      "      )\n",
      "      (ff): FeedForward(\n",
      "        (layers): Sequential(\n",
      "          (0): LinearWithLoRA(\n",
      "            (linear): Linear(in_features=768, out_features=3072, bias=True)\n",
      "            (lora): LoRALayer()\n",
      "          )\n",
      "          (1): GELU()\n",
      "          (2): LinearWithLoRA(\n",
      "            (linear): Linear(in_features=3072, out_features=768, bias=True)\n",
      "            (lora): LoRALayer()\n",
      "          )\n",
      "        )\n",
      "      )\n",
      "      (norm1): LayerNorm()\n",
      "      (norm2): LayerNorm()\n",
      "      (drop_resid): Dropout(p=0.0, inplace=False)\n",
      "    )\n",
      "    (9): TransformerBlock(\n",
      "      (att): MultiHeadAttention(\n",
      "        (W_query): LinearWithLoRA(\n",
      "          (linear): Linear(in_features=768, out_features=768, bias=True)\n",
      "          (lora): LoRALayer()\n",
      "        )\n",
      "        (W_key): LinearWithLoRA(\n",
      "          (linear): Linear(in_features=768, out_features=768, bias=True)\n",
      "          (lora): LoRALayer()\n",
      "        )\n",
      "        (W_value): LinearWithLoRA(\n",
      "          (linear): Linear(in_features=768, out_features=768, bias=True)\n",
      "          (lora): LoRALayer()\n",
      "        )\n",
      "        (out_proj): LinearWithLoRA(\n",
      "          (linear): Linear(in_features=768, out_features=768, bias=True)\n",
      "          (lora): LoRALayer()\n",
      "        )\n",
      "        (dropout): Dropout(p=0.0, inplace=False)\n",
      "      )\n",
      "      (ff): FeedForward(\n",
      "        (layers): Sequential(\n",
      "          (0): LinearWithLoRA(\n",
      "            (linear): Linear(in_features=768, out_features=3072, bias=True)\n",
      "            (lora): LoRALayer()\n",
      "          )\n",
      "          (1): GELU()\n",
      "          (2): LinearWithLoRA(\n",
      "            (linear): Linear(in_features=3072, out_features=768, bias=True)\n",
      "            (lora): LoRALayer()\n",
      "          )\n",
      "        )\n",
      "      )\n",
      "      (norm1): LayerNorm()\n",
      "      (norm2): LayerNorm()\n",
      "      (drop_resid): Dropout(p=0.0, inplace=False)\n",
      "    )\n",
      "    (10): TransformerBlock(\n",
      "      (att): MultiHeadAttention(\n",
      "        (W_query): LinearWithLoRA(\n",
      "          (linear): Linear(in_features=768, out_features=768, bias=True)\n",
      "          (lora): LoRALayer()\n",
      "        )\n",
      "        (W_key): LinearWithLoRA(\n",
      "          (linear): Linear(in_features=768, out_features=768, bias=True)\n",
      "          (lora): LoRALayer()\n",
      "        )\n",
      "        (W_value): LinearWithLoRA(\n",
      "          (linear): Linear(in_features=768, out_features=768, bias=True)\n",
      "          (lora): LoRALayer()\n",
      "        )\n",
      "        (out_proj): LinearWithLoRA(\n",
      "          (linear): Linear(in_features=768, out_features=768, bias=True)\n",
      "          (lora): LoRALayer()\n",
      "        )\n",
      "        (dropout): Dropout(p=0.0, inplace=False)\n",
      "      )\n",
      "      (ff): FeedForward(\n",
      "        (layers): Sequential(\n",
      "          (0): LinearWithLoRA(\n",
      "            (linear): Linear(in_features=768, out_features=3072, bias=True)\n",
      "            (lora): LoRALayer()\n",
      "          )\n",
      "          (1): GELU()\n",
      "          (2): LinearWithLoRA(\n",
      "            (linear): Linear(in_features=3072, out_features=768, bias=True)\n",
      "            (lora): LoRALayer()\n",
      "          )\n",
      "        )\n",
      "      )\n",
      "      (norm1): LayerNorm()\n",
      "      (norm2): LayerNorm()\n",
      "      (drop_resid): Dropout(p=0.0, inplace=False)\n",
      "    )\n",
      "    (11): TransformerBlock(\n",
      "      (att): MultiHeadAttention(\n",
      "        (W_query): LinearWithLoRA(\n",
      "          (linear): Linear(in_features=768, out_features=768, bias=True)\n",
      "          (lora): LoRALayer()\n",
      "        )\n",
      "        (W_key): LinearWithLoRA(\n",
      "          (linear): Linear(in_features=768, out_features=768, bias=True)\n",
      "          (lora): LoRALayer()\n",
      "        )\n",
      "        (W_value): LinearWithLoRA(\n",
      "          (linear): Linear(in_features=768, out_features=768, bias=True)\n",
      "          (lora): LoRALayer()\n",
      "        )\n",
      "        (out_proj): LinearWithLoRA(\n",
      "          (linear): Linear(in_features=768, out_features=768, bias=True)\n",
      "          (lora): LoRALayer()\n",
      "        )\n",
      "        (dropout): Dropout(p=0.0, inplace=False)\n",
      "      )\n",
      "      (ff): FeedForward(\n",
      "        (layers): Sequential(\n",
      "          (0): LinearWithLoRA(\n",
      "            (linear): Linear(in_features=768, out_features=3072, bias=True)\n",
      "            (lora): LoRALayer()\n",
      "          )\n",
      "          (1): GELU()\n",
      "          (2): LinearWithLoRA(\n",
      "            (linear): Linear(in_features=3072, out_features=768, bias=True)\n",
      "            (lora): LoRALayer()\n",
      "          )\n",
      "        )\n",
      "      )\n",
      "      (norm1): LayerNorm()\n",
      "      (norm2): LayerNorm()\n",
      "      (drop_resid): Dropout(p=0.0, inplace=False)\n",
      "    )\n",
      "  )\n",
      "  (final_norm): LayerNorm()\n",
      "  (out_head): LinearWithLoRA(\n",
      "    (linear): Linear(in_features=768, out_features=2, bias=True)\n",
      "    (lora): LoRALayer()\n",
      "  )\n",
      ")\n"
     ]
    }
   ],
   "source": [
    "device = torch.device(\"cuda\" if torch.cuda.is_available() else \"cpu\")\n",
    "model.to(device)\n",
    "\n",
    "print(model)"
   ]
  },
  {
   "cell_type": "markdown",
   "id": "c4bbc9d7-65ec-4675-bab8-2e56eb0cfb55",
   "metadata": {
    "id": "c4bbc9d7-65ec-4675-bab8-2e56eb0cfb55"
…
